…
        x = self.pos_encoder(x)                     # Output Shape: [batch_size, seq_len, embedding_dim]
        x = self.transformer_encoder(x)             # Output Shape: [batch_size, seq_len, embedding_dim]
        x = x.mean(dim=1)                           # Output Shape: [batch_size, embedding_dim]
        x = self.classifier(x)                      # Output Shape: [batch_size, num_class]

        return x
The model can then be trained on labeled data from the IMDB dataset with two classes.

Let's create the model.

model = Net(num_class=2, vocab_size=vocab_size).to(device)
model
Net(
  (emb): Embedding(400000, 100)
  (pos_encoder): PositionalEncoding(
    (dropout): Dropout(p=0.1, inplace=False)
  )
  (transformer_encoder): TransformerEncoder(
    (layers): ModuleList(
      (0-1): 2 x TransformerEncoderLayer(
        (self_attn): MultiheadAttention(
          (out_proj): NonDynamicallyQuantizableLinear(in_features=100, out_features=100, bias=True)
        )
        (linear1): Linear(in_features=100, out_features=128, bias=True)
        (dropout): Dropout(p=0.1, inplace=False)
        (linear2): Linear(in_features=128, out_features=100, bias=True)
        (norm1): LayerNorm((100,), eps=1e-05, elementwise_affine=True)
        (norm2): LayerNorm((100,), eps=1e-05, elementwise_affine=True)
        (dropout1): Dropout(p=0.1, inplace=False)
        (dropout2): Dropout(p=0.1, inplace=False)
      )
    )
  )
  (classifier): Linear(in_features=100, out_features=2, bias=True)
)
The following predict function takes in a text, a text pipeline, and a model as inputs. It uses a pretrained model passed as a parameter to predict the label of the text for text classification on the IMDB dataset.

def predict(text, text_pipeline, model):
    with torch.no_grad():
        text = torch.unsqueeze(torch.tensor(text_pipeline(text)), 0).to(device)
…
    text_list = pad_sequence(text_list, batch_first=True)
    
    return label_list.to(device), text_list.to(device)
BATCH_SIZE = 32

train_dataloader_ag_news = DataLoader(
    split_train_ag_news_, batch_size=BATCH_SIZE, shuffle=True, collate_fn=collate_batch_ag_news
)
valid_dataloader_ag_news = DataLoader(
    split_valid_ag_news_, batch_size=BATCH_SIZE, shuffle=True, collate_fn=collate_batch_ag_news
)
test_dataloader_ag_news = DataLoader(
    test_dataset_ag_news, batch_size=BATCH_SIZE, shuffle=True, collate_fn=collate_batch_ag_news
)
model_ag_news = Net(num_class=4, vocab_size=vocab_size).to(device)
model_ag_news.to(device)
Net(
  (emb): Embedding(400000, 100)
  (pos_encoder): PositionalEncoding(
    (dropout): Dropout(p=0.1, inplace=False)
  )
  (transformer_encoder): TransformerEncoder(
    (layers): ModuleList(
      (0-1): 2 x TransformerEncoderLayer(
        (self_attn): MultiheadAttention(
          (out_proj): NonDynamicallyQuantizableLinear(in_features=100, out_features=100, bias=True)
        )
        (linear1): Linear(in_features=100, out_features=128, bias=True)
        (dropout): Dropout(p=0.1, inplace=False)
        (linear2): Linear(in_features=128, out_features=100, bias=True)
        (norm1): LayerNorm((100,), eps=1e-05, elementwise_affine=True)
        (norm2): LayerNorm((100,), eps=1e-05, elementwise_affine=True)
        (dropout1): Dropout(p=0.1, inplace=False)
        (dropout2): Dropout(p=0.1, inplace=False)
      )
    )
  )
  (classifier): Linear(in_features=100, out_features=4, bias=True)
)
LR = 1
criterion = torch.nn.CrossEntropyLoss()
optimizer = torch.optim.SGD(model_ag_news.parameters(), lr=LR)
scheduler = torch.optim.lr_scheduler.StepLR(optimizer, 1.0, gamma=0.1)
save_dir = ""
file_name = "model_AG News small1.pth"
train_model(model=model_ag_news, optimizer=optimizer, criterion=criterion, train_dataloader=train_dataloader_ag_news, valid_dataloader=valid_dataloader_ag_news,  epochs=2, save_dir=save_dir, file_name=file_name)
…
  "num_hidden_layers": 12,
  "pad_token_id": 0,
  "position_embedding_type": "absolute",
  "transformers_version": "4.40.0",
  "type_vocab_size": 2,
  "use_cache": true,
  "vocab_size": 30522
}

# Define the BERT configuration
config = BertConfig(
    vocab_size=len(bert_tokenizer.get_vocab()),
    hidden_size=768,  
    num_hidden_layers=12,
    num_attention_heads=12,
    intermediate_size=3072
)
Create the BERT model for pre-training:

model = BertForMaskedLM(config)
check model configuration

model
BertForMaskedLM(
  (bert): BertModel(
    (embeddings): BertEmbeddings(
      (word_embeddings): Embedding(12576, 768, padding_idx=0)
      (position_embeddings): Embedding(512, 768)
      (token_type_embeddings): Embedding(2, 768)
      (LayerNorm): LayerNorm((768,), eps=1e-12, elementwise_affine=True)
      (dropout): Dropout(p=0.1, inplace=False)
    )
    (encoder): BertEncoder(
      (layer): ModuleList(
        (0-11): 12 x BertLayer(
          (attention): BertAttention(
            (self): BertSelfAttention(
              (query): Linear(in_features=768, out_features=768, bias=True)
              (key): Linear(in_features=768, out_features=768, bias=True)
              (value): Linear(in_features=768, out_features=768, bias=True)
              (dropout): Dropout(p=0.1, inplace=False)
            )
            (output): BertSelfOutput(
              (dense): Linear(in_features=768, out_features=768, bias=True)
              (LayerNorm): LayerNorm((768,), eps=1e-12, elementwise_affine=True)
              (dropout): Dropout(p=0.1, inplace=False)
            )
          )
          (intermediate): BertIntermediate(
            (dense): Linear(in_features=768, out_features=3072, bias=True)
            (intermediate_act_fn): GELUActivation()
          )
          (output): BertOutput(
            (dense): Linear(in_features=3072, out_features=768, bias=True)
            (LayerNorm): LayerNorm((768,), eps=1e-12, elementwise_affine=True)
            (dropout): Dropout(p=0.1, inplace=False)
          )
        )
      )
    )
  )
  (cls): BertOnlyMLMHead(
    (predictions): BertLMPredictionHead(
      (transform): BertPredictionHeadTransform(
        (dense): Linear(in_features=768, out_features=768, bias=True)
        (transform_act_fn): GELUActivation()
        (LayerNorm): LayerNorm((768,), eps=1e-12, elementwise_affine=True)
      )
      (decoder): Linear(in_features=768, out_features=12576, bias=True)
    )
  )
)
 
Tokenize Dataset Dynamically
dataset
DatasetDict({
    test: Dataset({
        features: ['text'],
        num_rows: 200
    })
    train: Dataset({
        features: ['text'],
        num_rows: 1000
    })
    validation: Dataset({
        features: ['text'],
        num_rows: 3760
    })
})
def tokenize_function(examples):
    return bert_tokenizer(examples["text"], truncation=True, padding="max_length", max_length=512)
…
First, freeze the parameters of a model named model_adapters to prevent them from being updated during training. Then, retrieve the number of input features for the classifier, and replace the classifier with a new linear layer that outputs to two classes.

for param in model_adapters.parameters():
    param.requires_grad = False

dim = model_adapters.classifier.in_features
model_adapters.classifier = nn.Linear(dim, 2)
model_adapters.transformer_encoder.layers[0]
TransformerEncoderLayer(
  (self_attn): MultiheadAttention(
    (out_proj): NonDynamicallyQuantizableLinear(in_features=100, out_features=100, bias=True)
  )
  (linear1): Linear(in_features=100, out_features=128, bias=True)
  (dropout): Dropout(p=0.1, inplace=False)
  (linear2): Linear(in_features=128, out_features=100, bias=True)
  (norm1): LayerNorm((100,), eps=1e-05, elementwise_affine=True)
  (norm2): LayerNorm((100,), eps=1e-05, elementwise_affine=True)
  (dropout1): Dropout(p=0.1, inplace=False)
  (dropout2): Dropout(p=0.1, inplace=False)
)
my_example_layer = model_adapters.transformer_encoder.layers[0].linear1
print(my_example_layer)
Linear(in_features=100, out_features=128, bias=True)
copy the linear layer and add an adapter layer to it.

my_adapeted_layer = Adapted(my_example_layer)
my_adapeted_layer
Adapted(
  (linear): Linear(in_features=100, out_features=128, bias=True)
  (adaptor): FeatureAdapter(
    (bottleneck_transform): Sequential(
      (0): Linear(in_features=128, out_features=64, bias=True)
      (1): ReLU()
      (2): Linear(in_features=64, out_features=128, bias=True)
    )
  )
)
for name, param in my_adapeted_layer.named_parameters():
    print(f"{name}: requires_grad={param.requires_grad}")
linear.weight: requires_grad=False
linear.bias: requires_grad=False
adaptor.bottleneck_transform.0.weight: requires_grad=True
adaptor.bottleneck_transform.0.bias: requires_grad=True
adaptor.bottleneck_transform.2.weight: requires_grad=True
adaptor.bottleneck_transform.2.bias: requires_grad=True
# Find number of layers
N_layers = len(model_adapters.transformer_encoder.layers)
N_layers
2
model_adapters.transformer_encoder.layers[0]
TransformerEncoderLayer(
  (self_attn): MultiheadAttention(
    (out_proj): NonDynamicallyQuantizableLinear(in_features=100, out_features=100, bias=True)
  )
  (linear1): Linear(in_features=100, out_features=128, bias=True)
  (dropout): Dropout(p=0.1, inplace=False)
  (linear2): Linear(in_features=128, out_features=100, bias=True)
  (norm1): LayerNorm((100,), eps=1e-05, elementwise_affine=True)
  (norm2): LayerNorm((100,), eps=1e-05, elementwise_affine=True)
  (dropout1): Dropout(p=0.1, inplace=False)
  (dropout2): Dropout(p=0.1, inplace=False)
)
model_adapters.transformer_encoder.layers[1]
TransformerEncoderLayer(
  (self_attn): MultiheadAttention(
    (out_proj): NonDynamicallyQuantizableLinear(in_features=100, out_features=100, bias=True)
  )
  (linear1): Linear(in_features=100, out_features=128, bias=True)
  (dropout): Dropout(p=0.1, inplace=False)
  (linear2): Linear(in_features=128, out_features=100, bias=True)
  (norm1): LayerNorm((100,), eps=1e-05, elementwise_affine=True)
  (norm2): LayerNorm((100,), eps=1e-05, elementwise_affine=True)
  (dropout1): Dropout(p=0.1, inplace=False)
  (dropout2): Dropout(p=0.1, inplace=False)
)
# Traverse model and adapt
for n in range(N_layers):
    encoder = model_adapters.transformer_encoder.layers[n]
    if encoder.linear1:
        print(" before linear1")
        print(encoder.linear1)
        model_adapters.transformer_encoder.layers[n].linear1=Adapted(encoder.linear1, bottleneck_size=24)
        print(" after  linear1")
        print(model_adapters.transformer_encoder.layers[n].linear1)

    if encoder.linear2:
        print(" before linear2")
        print(model_adapters.transformer_encoder.layers[n].linear2)
        model_adapters.transformer_encoder.layers[n].linear2=Adapted(encoder.linear2, bottleneck_size=24)
        print(" after linear2")
        print(model_adapters.transformer_encoder.layers[n].linear2)
 before linear1
Linear(in_features=100, out_features=128, bias=True)
 after  linear1
Adapted(
  (linear): Linear(in_features=100, out_features=128, bias=True)
  (adaptor): FeatureAdapter(
    (bottleneck_transform): Sequential(
      (0): Linear(in_features=128, out_features=24, bias=True)
      (1): ReLU()
      (2): Linear(in_features=24, out_features=128, bias=True)
    )
  )
)
 before linear2
Linear(in_features=128, out_features=100, bias=True)
 after linear2
Adapted(
  (linear): Linear(in_features=128, out_features=100, bias=True)
  (adaptor): FeatureAdapter(
    (bottleneck_transform): Sequential(
      (0): Linear(in_features=100, out_features=24, bias=True)
      (1): ReLU()
      (2): Linear(in_features=24, out_features=100, bias=True)
    )
  )
)
 before linear1
Linear(in_features=100, out_features=128, bias=True)
 after  linear1
Adapted(
  (linear): Linear(in_features=100, out_features=128, bias=True)
  (adaptor): FeatureAdapter(
    (bottleneck_transform): Sequential(
      (0): Linear(in_features=128, out_features=24, bias=True)
      (1): ReLU()
      (2): Linear(in_features=24, out_features=128, bias=True)
    )
  )
)
 before linear2
Linear(in_features=128, out_features=100, bias=True)
 after linear2
Adapted(
  (linear): Linear(in_features=128, out_features=100, bias=True)
  (adaptor): FeatureAdapter(
    (bottleneck_transform): Sequential(
      (0): Linear(in_features=100, out_features=24, bias=True)
      (1): ReLU()
      (2): Linear(in_features=24, out_features=100, bias=True)
    )
  )
)
model_adapters.to(device)
Net(
  (emb): Embedding(400000, 100)
  (pos_encoder): PositionalEncoding(
    (dropout): Dropout(p=0.1, inplace=False)
  )
  (transformer_encoder): TransformerEncoder(
    (layers): ModuleList(
      (0-1): 2 x TransformerEncoderLayer(
        (self_attn): MultiheadAttention(
          (out_proj): NonDynamicallyQuantizableLinear(in_features=100, out_features=100, bias=True)
        )
        (linear1): Adapted(
          (linear): Linear(in_features=100, out_features=128, bias=True)
          (adaptor): FeatureAdapter(
            (bottleneck_transform): Sequential(
              (0): Linear(in_features=128, out_features=24, bias=True)
              (1): ReLU()
              (2): Linear(in_features=24, out_features=128, bias=True)
            )
          )
        )
        (dropout): Dropout(p=0.1, inplace=False)
        (linear2): Adapted(
          (linear): Linear(in_features=128, out_features=100, bias=True)
          (adaptor): FeatureAdapter(
            (bottleneck_transform): Sequential(
              (0): Linear(in_features=100, out_features=24, bias=True)
              (1): ReLU()
              (2): Linear(in_features=24, out_features=100, bias=True)
            )
          )
        )
        (norm1): LayerNorm((100,), eps=1e-05, elementwise_affine=True)
        (norm2): LayerNorm((100,), eps=1e-05, elementwise_affine=True)
        (dropout1): Dropout(p=0.1, inplace=False)
        (dropout2): Dropout(p=0.1, inplace=False)
      )
    )
  )
  (classifier): Linear(in_features=100, out_features=2, bias=True)
)
LR = 1
criterion = torch.nn.CrossEntropyLoss()
optimizer = torch.optim.SGD(model_adapters.parameters(), lr=LR)
scheduler = torch.optim.lr_scheduler.StepLR(optimizer, 1.0, gamma=0.1)
save_dir = ""
file_name = "model_adapters.pth"
train_model(model=model_adapters, optimizer=optimizer, criterion=criterion, train_dataloader=train_dataloader, valid_dataloader=valid_dataloader,  epochs=2,  save_dir=save_dir ,file_name=file_name )
…
        print(" before linear2")
        print(model_adapters_.transformer_encoder.layers[n].linear2)
        model_adapters_.transformer_encoder.layers[n].linear2=Adapted(encoder.linear2, bottleneck_size=24)
        print(" after linear2")
        print(model_adapters_.transformer_encoder.layers[n].linear2)

model_adapters_.to(device)
for param in model_adapters_.parameters():
    param.requires_grad = False

model_adapters_.load_state_dict(torch.load('model_adapters.pth', map_location=device))
 before linear1
Linear(in_features=100, out_features=128, bias=True)
 after  linear1
Adapted(
  (linear): Linear(in_features=100, out_features=128, bias=True)
  (adaptor): FeatureAdapter(
    (bottleneck_transform): Sequential(
      (0): Linear(in_features=128, out_features=24, bias=True)
      (1): ReLU()
      (2): Linear(in_features=24, out_features=128, bias=True)
    )
  )
)
 before linear2
Linear(in_features=128, out_features=100, bias=True)
 after linear2
Adapted(
  (linear): Linear(in_features=128, out_features=100, bias=True)
  (adaptor): FeatureAdapter(
    (bottleneck_transform): Sequential(
      (0): Linear(in_features=100, out_features=24, bias=True)
      (1): ReLU()
      (2): Linear(in_features=24, out_features=100, bias=True)
    )
  )
)
 before linear1
Linear(in_features=100, out_features=128, bias=True)
 after  linear1
Adapted(
  (linear): Linear(in_features=100, out_features=128, bias=True)
  (adaptor): FeatureAdapter(
    (bottleneck_transform): Sequential(
      (0): Linear(in_features=128, out_features=24, bias=True)
      (1): ReLU()
      (2): Linear(in_features=24, out_features=128, bias=True)
    )
  )
)
 before linear2
Linear(in_features=128, out_features=100, bias=True)
 after linear2
Adapted(
  (linear): Linear(in_features=128, out_features=100, bias=True)
  (adaptor): FeatureAdapter(
    (bottleneck_transform): Sequential(
      (0): Linear(in_features=100, out_features=24, bias=True)
      (1): ReLU()
      (2): Linear(in_features=24, out_features=100, bias=True)
    )
  )
)
<All keys matched successfully>
evaluate(test_dataloader, model_adapters_)
100%|██████████| 782/782 [04:12<00:00,  3.10it/s]
0.8564
 
As we can see, the performance of the fine-tuned adapted model is nearly identical to the fully fine-tuned model, with both models achieving a roughly 86% accuracy. This is an especially surprising result because a significantly smaller number of weights were updated for the adapted model than the fully fine-tuned model. Note that only the adapter layers with a bottleneck size of 24 and the final classifier layer are unfrozen.
…
To fine-tune with LoRA, first, load a pretrained TextClassifier model with LoRA (while freezing its layers), load its pretrained state from a file, and then disable gradient updates for all of its parameters to prevent further training. Here, we will load a model that was pretrained on the AG NEWS dataset, which is a dataset that has 4 classes. we initialize this model, we set num_classes to 4. Moreover, the pretrained AG_News model was trained with the embedding layer unfrozen. Hence we will initialize the model with freeze=False. Although we are initializing the model with layers unfrozen and the wrong number of classes for our task, we will make modifications to the model later on that to correct this:

model_lora = TextClassifier(num_classes=4, freeze=False)
model_lora.to(device)
TextClassifier(
  (embedding): Embedding(400000, 100)
  (fc1): Linear(in_features=100, out_features=128, bias=True)
  (relu): ReLU()
  (fc2): Linear(in_features=128, out_features=4, bias=True)
)
state_dict = torch.load("my-model-agnews-freeze-false.pth", map_location=device)
model_lora.load_state_dict(state_dict)
<All keys matched successfully>
# Here, we freeze all layers:
for parm in model_lora.parameters():
    parm.requires_grad=False
    
model_lora
TextClassifier(
  (embedding): Embedding(400000, 100)
  (fc1): Linear(in_features=100, out_features=128, bias=True)
  (relu): ReLU()
  (fc2): Linear(in_features=128, out_features=4, bias=True)
)
Additionally, the original model was on a classification problem that had four classes, while the IMDB dataset has just 2 classes. To account for this, we will replace the final layer with a new linear layer where the number of outputs equals 2:

model_lora.fc2 = nn.Linear(in_features=128, out_features=2, bias=True).to(device)
model_lora
TextClassifier(
  (embedding): Embedding(400000, 100)
  (fc1): Linear(in_features=100, out_features=128, bias=True)
  (relu): ReLU()
  (fc2): Linear(in_features=128, out_features=2, bias=True)
)
model_lora
TextClassifier(
  (embedding): Embedding(400000, 100)
  (fc1): Linear(in_features=100, out_features=128, bias=True)
  (relu): ReLU()
  (fc2): Linear(in_features=128, out_features=2, bias=True)
)
now replace the hidden layer with a LoRA layer. we can access the hidden layer as

model_lora.fc1
Linear(in_features=100, out_features=128, bias=True)
The following replaces this layer with a LoRA layer:

model_lora.fc1 = LinearWithLoRA(model_lora.fc1, rank=2, alpha=0.1).to(device)
Let's look at the hidden layer again to ensure that it is indeed converted to a LoRA layer.

model_lora.fc1
LinearWithLoRA(
  (linear): Linear(in_features=100, out_features=128, bias=True)
  (lora): LoRALayer()
)
for name, param in model_lora.named_parameters():
    print(f"{name}: requires_grad={param.requires_grad}")
embedding.weight: requires_grad=False
fc1.linear.weight: requires_grad=False
fc1.linear.bias: requires_grad=False
fc1.lora.A: requires_grad=True
fc1.lora.B: requires_grad=True
fc2.weight: requires_grad=True
fc2.bias: requires_grad=True
 
At this point, training the model is similar, with the only difference being that, except for the output layer, only the learnable parameters A and B will be updated. The code to select the values for r and alpha, which is not run, is nonetheless provided herein for your convenience.

model_lora.to(device)
TextClassifier(
  (embedding): Embedding(400000, 100)
  (fc1): LinearWithLoRA(
    (linear): Linear(in_features=100, out_features=128, bias=True)
    (lora): LoRALayer()
  )
  (relu): ReLU()
  (fc2): Linear(in_features=128, out_features=2, bias=True)
)
 
Let's set up the training components for the model_lora model

LR = 1
criterion = torch.nn.CrossEntropyLoss()
optimizer = torch.optim.SGD(model_lora.parameters(), lr=LR)
scheduler = torch.optim.lr_scheduler.StepLR(optimizer, 1.0, gamma=0.1)
I have pretrained a model using an identical procedure for 300 epochs and saved it for reuse on a GPU.

# model_name = "model-lora-final2"
…
B = torch.load('B.pth')
print("B:", B.shape)
B: torch.Size([2, 128])
alfa_ = torch.load('alfa_.pth')
alfa_ 
The output layer:

output_layer = nn.Linear(in_features=128, out_features=2, bias=True)
output_layer.load_state_dict(torch.load('out_layer.pth'))
<All keys matched successfully>
The model object is created and the pretrained parameters are loaded:

model_load_lora = TextClassifier(num_classes=4, freeze=False)
model_load_lora.to(device)

state_dict = torch.load('my-model-agnews-freeze-false.pth', map_location=device)
model_load_lora.load_state_dict(state_dict)
model_load_lora
TextClassifier(
  (embedding): Embedding(400000, 100)
  (fc1): Linear(in_features=100, out_features=128, bias=True)
  (relu): ReLU()
  (fc2): Linear(in_features=128, out_features=4, bias=True)
)
The LoRA layer object is added to the original hidden layer.

model_load_lora.fc1 = LinearWithLoRA(model_load_lora.fc1, rank=2, alpha=0.1)
model_load_lora.fc2 = nn.Linear(in_features=128, out_features=2, bias=True).to(device)
The parameters from fine-tuning are added.

model_load_lora.fc1.lora.A = A
model_load_lora.fc1.lora.B = B
model_load_lora.fc1.lora.alpha = alfa_ 
model_load_lora.fc2 = output_layer
model_load_lora.to(device)
model_load_lora.eval()
TextClassifier(
  (embedding): Embedding(400000, 100)
  (fc1): LinearWithLoRA(
    (linear): Linear(in_features=100, out_features=128, bias=True)
    (lora): LoRALayer()
  )
  (relu): ReLU()
  (fc2): Linear(in_features=128, out_features=2, bias=True)
)
evaluate(test_dataloader, model_load_lora, device)
This confirms that the model loaded correctly. we still get a 3% improvement in accuracy!

Finally, the following shows how we can make a prediction on the following article using the function predict:

article = """This was a lacklustre movie with very little going for it. I was not impressed."""
result = predict(article, model_load_lora, text_pipeline)
…
model = NNet()
model.to(device)

print('This is what the model looked like before applying LoRA:')
print(model)
print("\n###############\n")

# Freeze all parameters:
for parm in model.parameters():
    parm.requires_grad = False

# Change final layer for one with 26 outputs:
model.fc3 = nn.Linear(in_features=84, out_features=26, bias=True).to(device)

# Apply LoRA to the second linear layer
model.fc2=LinearWithLoRA(model.fc2, rank=2, alpha=0.1).to(device)

print('This is what the model looked like after applying LoRA:')
print(model)
This is what the model looked like before applying LoRA:
NNet(
  (conv1): Conv2d(1, 6, kernel_size=(5, 5), stride=(1, 1))
  (conv2): Conv2d(6, 16, kernel_size=(5, 5), stride=(1, 1))
  (fc1): Linear(in_features=400, out_features=120, bias=True)
  (fc2): Linear(in_features=120, out_features=84, bias=True)
  (fc3): Linear(in_features=84, out_features=10, bias=True)
)

###############

This is what the model looked like after applying LoRA:
NNet(
  (conv1): Conv2d(1, 6, kernel_size=(5, 5), stride=(1, 1))
  (conv2): Conv2d(6, 16, kernel_size=(5, 5), stride=(1, 1))
  (fc1): Linear(in_features=400, out_features=120, bias=True)
  (fc2): LinearWithLoRA(
    (linear): Linear(in_features=120, out_features=84, bias=True)
    (lora): LoRALayer()
  )
  (fc3): Linear(in_features=84, out_features=26, bias=True)
)
 
 
 













The Applied Transformer: Fine-Tuning for Classification & Conversation
Objective: This notebook provides a practical guide to fine-tuning Transformer models for two distinct and critical NLP tasks: discriminative classification with an encoder (BERT) and generative instruction-following with a decoder (OPT).

Two Fine-Tuning Paths Explored
…
Some weights of BertForSequenceClassification were not initialized from the model checkpoint at bert-base-cased and are newly initialized: ['classifier.bias', 'classifier.weight']
You should probably TRAIN this model on a down-stream task to be able to use it for predictions and inference.
Optimizer and learning rate schedule
optimizer = AdamW(model.parameters(), lr=5e-4)
num_epochs = 10
num_training_steps = num_epochs * len(train_dataloader)
lr_scheduler = LambdaLR(optimizer, lr_lambda=lambda current_step: (1 - current_step / num_training_steps))
device = torch.device("cuda") if torch.cuda.is_available() else torch.device("cpu")
model.to(device)
BertForSequenceClassification(
  (bert): BertModel(
    (embeddings): BertEmbeddings(
      (word_embeddings): Embedding(28996, 768, padding_idx=0)
      (position_embeddings): Embedding(512, 768)
      (token_type_embeddings): Embedding(2, 768)
      (LayerNorm): LayerNorm((768,), eps=1e-12, elementwise_affine=True)
      (dropout): Dropout(p=0.1, inplace=False)
    )
    (encoder): BertEncoder(
      (layer): ModuleList(
        (0-11): 12 x BertLayer(
          (attention): BertAttention(
            (self): BertSdpaSelfAttention(
              (query): Linear(in_features=768, out_features=768, bias=True)
              (key): Linear(in_features=768, out_features=768, bias=True)
              (value): Linear(in_features=768, out_features=768, bias=True)
              (dropout): Dropout(p=0.1, inplace=False)
            )
            (output): BertSelfOutput(
              (dense): Linear(in_features=768, out_features=768, bias=True)
              (LayerNorm): LayerNorm((768,), eps=1e-12, elementwise_affine=True)
              (dropout): Dropout(p=0.1, inplace=False)
            )
          )
          (intermediate): BertIntermediate(
            (dense): Linear(in_features=768, out_features=3072, bias=True)
            (intermediate_act_fn): GELUActivation()
          )
          (output): BertOutput(
            (dense): Linear(in_features=3072, out_features=768, bias=True)
            (LayerNorm): LayerNorm((768,), eps=1e-12, elementwise_affine=True)
            (dropout): Dropout(p=0.1, inplace=False)
          )
        )
      )
    )
    (pooler): BertPooler(
      (dense): Linear(in_features=768, out_features=768, bias=True)
      (activation): Tanh()
    )
  )
  (dropout): Dropout(p=0.1, inplace=False)
  (classifier): Linear(in_features=768, out_features=5, bias=True)
)
Training loop
def train_model(model, tr_dataloader):
    progress_bar = tqdm(range(num_training_steps))
    model.train()
    tr_losses = []

    # Training loop
    for epoch in range(num_epochs):
        total_loss = 0 

        for batch in tr_dataloader:
            batch = {k: v.to(device) for k, v in batch.items()}
            outputs = model(**batch)
…
